hylife/utilitis_PIC/b1_coeff.npy (npy, 704 bytes, 1 tensors)

array (column-major) f8 [3, 4, 6]
000000 48 96 d7 8f 07 4e b5 bf fc 8c 5b 3f be 3a db bf
       -0.08322188627024574 -0.4254603975989111
000010 84 53 38 29 ed fe c5 3f 50 b2 d1 0b 44 e9 bd 3f
       0.17184223663994314 0.11684060371926219
000020 80 c8 e1 e1 e2 73 95 bf 14 82 42 d6 9b b7 da 3f
       -0.020949883496037547 0.41745658801849683
000030 5a fa d2 bf 9f 82 d1 bf f0 d4 8d 4f 9d 9f da 3f
       -0.27359765751672216 0.4159920956511334
000040 4e 9f ae 47 34 a9 dd 3f 18 cf 9a 92 f9 43 d4 3f
       0.46345240593153825 0.3166488582312339
000050 5c 5b 05 9a e2 82 dc bf ac 88 91 c9 48 40 c5 bf
       -0.44548859635454163 -0.16602430193149098
000060 bc 4a 66 a3 5d f0 da 3f 40 06 66 c0 7b 98 be bf
       0.420920762605572 -0.11951421210508162
000070 86 11 ea 37 2d d2 dd bf e4 59 10 7d f8 0b c2 3f
       -0.46595316372283724 0.14099031550058705
000080 80 22 81 7a 4f 96 d2 3f 08 cc a9 6c 64 9b d2 bf
       0.29042422259639267 -0.2907343922772161
000090 00 15 7c 2b 4b 2d cd 3f 60 6d db f7 cc ac 93 bf
       0.22794475196148056 -0.01921386969375527
0000a0 88 af b5 ef 31 9c b9 3f d0 cf 6d f5 b4 0b af bf
       0.10003959753310998 -0.06063619132956399
0000b0 54 0c c5 bb 5c d1 cf 3f 50 29 ca 96 9b 5d ae 3f
       0.2485767285198529 0.05930792060560697
0000c0 c4 07 5c 5b 92 d4 db bf a8 7d 79 51 cd 10 d5 bf
       -0.4348493473227075 -0.3291505141878255
0000d0 b8 c4 0d 21 ba e8 d5 bf b0 e1 45 e9 0c 46 d3 bf
       -0.3423295328894471 -0.30115053921283685
0000e0 50 ca 8a 86 e0 d4 a0 3f 76 4b d3 2c d4 9f d9 bf
       0.03287412302360748 -0.4003801763293987
0000f0 c8 95 f8 03 9e 93 dc bf 30 ba 17 40 7f 9b dd bf
       -0.44650984180256303 -0.46261578806926007
000100 88 9f 58 96 69 8b d4 3f 30 bd 7c 10 0f ed d3 3f
       0.32100906069035107 0.3113439236648956
000110 9a 31 29 17 23 03 d9 3f 28 49 bd 8a ad b4 c6 bf
       0.3908164716892998 -0.17738885187515874
000120 4c 40 23 f0 86 1d c8 3f 20 30 0d 72 7f 93 b0 3f
       0.18840109563325524 0.06475063833676176
000130 b4 55 7b 18 43 55 db 3f 88 87 7a b3 70 83 c4 3f
       0.4270789851264809 0.16026123775105483
000140 f4 fa c6 31 26 2c ca 3f 00 81 53 c6 72 91 d6 3f
       0.20447232656984904 0.3526274620799228
000150 70 b5 e6 fc 10 a8 cc bf 3c 10 23 2b 68 da d9 3f
       -0.22387897823993397 0.40395549976915723
000160 18 ed 0b ab 85 4d c5 3f 38 4b e5 af c0 5d cd bf
       0.16642828800090892 -0.22942360485702706
000170 50 a1 1d 2e 94 72 db 3f 64 a3 14 c7 9c 18 d6 3f
       0.42886833671083924 0.3452522224566137
000180 72 3a 6f ef 82 d1 dd bf 00 2e ab 54 0f 6d 57 bf
       -0.46591256506227474 -0.001429810496733519
000190 fc fc 0e 43 21 e7 da 3f 66 05 20 42 0f 5d d0 3f
       0.4203570513599997 0.2556799073937185
0001a0 54 7e d8 73 1b 7c db 3f 94 26 7a f2 df a9 c9 bf
       0.4294499045663305 -0.20049666728691717
0001b0 ec f9 d4 6f f6 28 cf bf 16 57 0b 41 07 b6 d3 3f
       -0.24343758068603394 0.3079851279447764
0001c0 70 60 c0 e7 52 b4 a9 3f 5c da 93 b4 51 2f d1 3f
       0.05020388678548293 0.2685131324246066
0001d0 40 9b 14 19 6d 86 86 bf 76 ad b4 71 d1 9a d4 3f
       -0.010998585060020383 0.32194934944228437
0001e0 b8 54 5e 4b d4 ec db bf 32 d1 94 e5 8a b8 de bf
       -0.43632991180613656 -0.4800135843281793
0001f0 80 b7 5a 83 62 57 94 bf 08 8e 14 13 26 10 c5 3f
       -0.019864596621736563 0.16455532008795637
000200 b4 01 1c e6 4a ba cb bf ee fc 6c 3f bc cf d9 3f
       -0.21662269817171664 0.40330415910643935
000210 da f8 b4 b4 e1 f2 d2 bf 00 b1 76 c7 66 0a 66 3f
       -0.29607432028923386 0.0026905066876762307
000220 70 d4 78 61 23 15 b0 3f 9c ff f0 89 c3 dc cc bf
       0.06282254342734617 -0.22548717723293243
000230 3a c9 34 00 96 24 d3 3f 10 9a 10 73 5b 8b d4 3f
       0.29910802860389973 0.32100568997194134
