hylife/utilitis_PIC/b2_coeff.npy (npy, 704 bytes, 1 tensors)

array (column-major) f8 [3, 4, 6]
0	0x3fdc53945472548e	0.4426012825654845
1	0xbfdbf174f8eed4bc	-0.4366123610482864
2	0x3fd421eda9374a98	0.31457082295416106
3	0x3fcb35db4722a2c0	0.21258107159999007
4	0xbfcda7bf74dc4d50	-0.23168175893861553
5	0xbfdc5f60dab3de24	-0.44332143171002003
6	0xbfc78dd0c70e0d00	-0.18401536674000596
7	0xbfb9d600e9282bd0	-0.10092168514545041
8	0xbfde3220c14ddbc4	-0.4718095672355356
9	0xbfc77bc6e2dfc9a8	-0.18346487119522448
10	0xbf7878ac72731300	-0.0059744583333596335
11	0xbfdac07968f2fcc2	-0.4179976963896018
12	0x3fdba108322b799a	0.4317036142291727
13	0xbfd38afb886062f8	-0.30535782163637704
14	0x3fda1a5705edced4	0.4078576620006349
15	0x3fdf44c7a3987bf8	0.48857298828255535
16	0x3f963cb9cbd9ac80	0.021716025416406826
17	0xbfdff90498e2534a	-0.49957384996496457
18	0xbfbfa912965aa9f8	-0.12367359324222338
19	0xbfcf9587a015d4c8	-0.246750786940231
20	0xbfbcb5b178ad8e28	-0.1121474189399626
21	0xbfd0b75e3708e5b6	-0.26119189619529537
22	0x3fa7d4ddc63de660	0.04654591603225522
23	0x3fcc8233d7008480	0.22272346494813533
24	0xbfb76bf5cceed570	-0.0914910912823268
25	0xbfd5b194fc15f28e	-0.3389637433790903
26	0x3fdd4bea9eb96078	0.45775857448962354
27	0x3fd685ba686df2fa	0.35191211889450325
28	0xbfd0cbf090949e14	-0.2624474918288524
29	0xbfcae7e6872b9540	-0.2102020416270225
30	0xbfb778a6413964a8	-0.09168471424472335
31	0xbfd8b58f934f96a6	-0.38608159433202116
32	0xbfd2eacc1516ed5e	-0.2955808835938195
33	0x3fa61a3760a6a870	0.043168764637201984
34	0xbfcf1e714360d328	-0.24311652936889883
35	0x3fdb64d385c475bc	0.4280289465258098
36	0xbfda3d0f12c80228	-0.40997673830136927
37	0xbfc4a1f0f0e96100	-0.1611920524908399
38	0xbfb2307e57d354c8	-0.07105245250871228
39	0x3fd5926e16bbfe0a	0.33706238002920996
40	0x3fc040ee4588264c	0.12698152918919658
41	0xbfc7232650bdf434	-0.18076018278580508
42	0x3fd468808acc1c08	0.3188783030931863
43	0xbfd17df8a57ad692	-0.27331367645397464
44	0x3fd2a367707b119e	0.29122339233824757
45	0xbfa0aef6be145130	-0.032584868147895185
46	0x3fdbf32a9d759c0e	0.43671670319457767
47	0xbfde1d87d3c1c928	-0.47055240325348047
48	0xbfddabcad76c0ba4	-0.4636103728991492
49	0x3fd5148219404470	0.32937672105715077
50	0x3fd606edc80e6652	0.34417290245764776
51	0x3fdd1d01521dde44	0.4548953344269402
52	0xbfc9632a7d61b318	-0.19833880540991156
53	0xbfd4c4001dd44606	-0.32446291840560126
54	0xbfc986d72d5e7aa0	-0.19942750659261765
55	0xbfd56ef7c46f9dae	-0.3348979395218191
56	0xbfdac7e6340e3034	-0.41845088084733395
57	0xbfc16be9a8d7248c	-0.136105735246279
58	0x3fc3bdc1f953c380	0.15422844576053407
59	0xbfc6fe68d912a22c	-0.17963896369225674
60	0xbfdd9b8074172f56	-0.46261607491463985
61	0x3fc4cc2a1af1e694	0.1624806052748694
62	0xbfc492a01b9c42bc	-0.1607246527496694
63	0xbfcb27134af5a14c	-0.2121299854291102
64	0xbfdf5677bfd7dc5e	-0.4896525739163219
65	0xbfdec14624cb5b28	-0.4805465087242049
66	0xbfa0306e0d79f880	-0.031619490761827684
67	0xbfc6247c7518e464	-0.17298846929205347
68	0x3fdce7cbadafafbe	0.45164768182325676
69	0xbfd841823cb86ada	-0.37899833612179423
70	0x3fbb4eb95cf822b8	0.1066699840522557
71	0xbfcec3ba1ddf2db8	-0.24034811457236827
