hylife/utilitis_PIC/b3_coeff.npy (npy, 704 bytes, 1 tensors)

array (column-major) f8 [3, 4, 6]
00000000: 02a5 426c a582 d23f d83c 0634 9bfe bebf
00000010: 4845 e269 956d babf 0005 9060 489e c8bf
00000020: ccbd ef1f 189d da3f 74f8 39d0 9fc2 cd3f
00000030: d05a 90e9 94f9 c93f 4c35 1dd7 ea06 d53f
00000040: 0c34 af7c db2f debf 50f6 50d3 bc37 a73f
00000050: d4a0 8ce2 1442 c83f c051 73cc 2931 debf
00000060: 388d 1ebf 256a b83f 38d0 46f6 9bf2 c63f
00000070: 9420 966b 721f c1bf 9839 42a1 ba25 d5bf
00000080: a075 3c98 5f1d a7bf 22b0 c951 e2b8 debf
00000090: 80a7 5585 8686 babf 9a92 6ea1 d8d0 dfbf
000000a0: 6841 c8cf 1082 c6bf c40e 5ab1 fa95 d53f
000000b0: 50cf 203b dd0a cc3f feeb 38b3 9bbd d03f
000000c0: ac04 d3e6 853e d0bf 5290 4862 2516 d93f
000000d0: 380e 2d26 bfe3 bc3f ec8a 1000 6641 c23f
000000e0: 365a 0e6a c7c9 d8bf 0800 4a54 b3c8 bb3f
000000f0: 40a5 5b59 4639 c23f c4e4 e97a 87d6 cebf
00000100: 60f2 7f13 a646 d3bf 86ce ca21 3d0d db3f
00000110: fef3 eff6 9716 d1bf 08f1 7efc 49f1 d6bf
00000120: a456 28b7 0ecf cabf 4095 8f82 5888 c03f
00000130: c20b 9cb2 d874 dd3f 0609 2963 4c8b dcbf
00000140: eef6 25e3 465f d7bf 90ec a0cb babe a9bf
00000150: 50ac 2298 1cf7 b2bf 0aa0 9bb5 63b8 d1bf
00000160: 68af 9966 df54 babf 104d cc90 3270 bebf
00000170: 0c38 8a9c 8b41 dfbf f89d 8569 59e4 d9bf
00000180: 8077 e889 2aca 80bf 94cb 2172 42c5 c43f
00000190: 3271 f8cc c802 d13f 180e 90be bff3 b4bf
000001a0: 8085 74c8 49e7 9c3f c062 fb52 43fd 90bf
000001b0: ec17 864d 4b4d debf c89e e431 7e9c bf3f
000001c0: 4455 683b 2152 c73f c420 978d 83f6 c93f
000001d0: f8c2 7cc4 7555 d0bf fcd6 5a55 bfa7 c1bf
000001e0: e87f a6d2 cb11 b6bf 3cac 6b58 f284 cd3f
000001f0: 4003 1b71 5625 973f 98d9 4e8f 371b babf
00000200: 1842 1990 e04f c63f 80c4 c4e3 d027 96bf
00000210: 0066 514e 6e53 a1bf 8cee d077 7583 cf3f
00000220: 00de 31ae e89c 50bf d0b9 ba99 3b74 b9bf
00000230: 34b4 b950 176f ca3f 94bc f393 63c2 ddbf
0.2892240102033413 -0.12107248325468178 -0.10323461375289356 -0.19233040537805124 0.41583827132032236 0.2325019613962841 0.2029291286896382 0.3285472012256221
-0.4716709821339584 0.04534711913627787 0.18951664983729322 -0.4717506882273277 0.09536968151092118 0.1792788460276158 -0.13377218487972142 -0.33042779682082246
-0.045145976384655784 -0.48003442751974224 -0.10361519580115264 -0.49712196125828145 -0.1758442892610319 0.337279008097749 0.21908154856793738 0.26157276632483206
-0.2538161043303926 0.39197668645852446 0.11285013849288184 0.1426208019557501 -0.3873156104758978 0.10853119666899158 0.14237288821395033 -0.24092191220896642
-0.30118705658222744 0.42268303203602675 -0.26700400462124196 -0.3584771123676238 -0.20944389289131948 0.1291609418396238 0.460256742881196 -0.44600209888098197
-0.36519024069262584 -0.05028327689839174 -0.07408312525028404 -0.27687924132487807 -0.10285755400553642 -0.11889949832066216 -0.4883755711279043 -0.4045623331535064
-0.008198101361866383 0.16226988385059526 0.2657949449219529 -0.0818443145981792 0.028226044521152627 -0.016591121616189808 -0.47346766062435 0.12348164289562213
0.18219390297660187 0.20283550656882288 -0.25521606624810955 -0.13793174426762522 -0.0862090482028176 0.23061971013462024 0.022603369382298455 -0.10197779892664582
0.1743126586539041 -0.02163626089276649 -0.03383965211896722 0.2461993060149904 -0.0010139724988941223 -0.09942982199820638 0.2065152305762311 -0.46498956154295823
